ProjectImage/TrainData.pth (torch, 195431 bytes, 6 tensors)

l1.weight f4 [136, 166]
000000 fa f1 2c 3e bf 52 d7 3d fb 45 d6 3d de 93 a9 bd
       0.16889182 0.105138294 0.104625665 -0.082801566
000010 e6 c7 cb 3e 2e 0f a8 bc 87 3c d0 3d 8e 22 44 3e
       0.39800948 -0.02051505 0.10167795 0.19153807
000020 2a 48 fc bc d6 b1 85 bd db 06 a8 3e dd e8 b3 bd
       -0.03079613 -0.0652806 0.3281773 -0.087846495
000030 55 d5 85 3e 74 b6 56 3e 1d 1d 26 3b c6 29 43 3f
       0.26139322 0.20968038 0.0025346943 0.76235616
000040 1c b4 24 3e a8 d2 29 3e 4c be 9e bd 7c 31 bf 3d
       0.16084331 0.16584265 -0.0775114 0.0933561
000050 de 5e eb bc 05 a6 37 3d 78 2e 37 3d 76 b4 26 3c
       -0.02873176 0.044836063 0.04472205 0.010174861
000060 75 f2 c9 bd 17 83 d3 bd 82 69 a5 bc a4 76 1b be
       -0.09860698 -0.10327738 -0.020191912 -0.15181977
000070 9a fc f4 bd 18 7b 8b 3e 10 e5 fe 3e 9d fc d0 3d
       -0.119622424 0.2724235 0.49784136 0.10204432
000080 f5 82 00 3d e6 07 96 be 41 aa 4f 3c 10 64 b5 bc
       0.03137489 -0.293029 0.012674869 -0.02214244
000090 7d cb 48 3e f8 51 4f bd 6d 10 32 3f 92 ae 83 bd
       0.19608875 -0.05061528 0.69556314 -0.06429781
0000a0 65 8f 85 bd 53 c4 2e bd 02 03 dc 3e 52 91 69 3e
       -0.06521491 -0.042667698 0.42971045 0.22809342
0000b0 6f 17 49 3e dc da b7 3e 64 77 3e bd d2 b8 d7 3d
       0.19637845 0.35909164 -0.04650058 0.105332986
0000c0 9f a6 31 3e 28 52 ab bd af 40 6f bc 8f 62 31 be
       0.17348717 -0.083652794 -0.014602824 -0.17322753
0000d0 b6 6d 53 3e 38 34 1b be 7e c8 9f bd d5 fd d6 3e
       0.2064732 -0.15156639 -0.07801913 0.41990533
0000e0 e5 93 e0 3e fe 2c 21 be db ca fc 3e 4e 01 48 3e
       0.43862835 -0.1573982 0.49373516 0.19531748
0000f0 6d 2e b8 3e fd 1c 41 3e 5c ad 04 be d5 78 f2 3e
       0.3597292 0.18858714 -0.12956756 0.47357813
000100 a3 a1 dc 3e de 64 23 3f df 97 ec 3e 3e b7 d8 bd
       0.4309207 0.63825786 0.46209618 -0.10581826
000110 a7 47 e8 3e 73 88 b3 bc b2 5b 37 be d7 ee 03 3e
       0.45367166 -0.02191565 -0.17906073 0.12884079
000120 e1 fd 1f be 9d 06 2f be 1b 84 0b 3e 15 fd 2f bd
       -0.15624191 -0.17092367 0.13624613 -0.042965967
000130 a8 69 fb bd 40 ea b7 bb 60 02 b6 3d 2c bc 58 3f
       -0.12276012 -0.0056126416 0.08887172 0.8466213
000140 bb 8b 9c bc ab c0 47 be 69 3c 6d 3e ca d2 44 be
       -0.019109597 -0.19507091 0.23167576 -0.19221035
000150 e7 4a 91 3e 9d ff af 3d f2 b8 0c 3d 64 4a 5e 3e
       0.28377458 0.08593676 0.034356065 0.21708065
000160 73 db 12 3f 8f 4a 8b 3e 8a 0e d8 bd 68 eb 40 be
       0.573661 0.2720532 -0.10549648 -0.188398
000170 65 51 77 3f 7f 31 a7 3e 12 de 0d be ca 9b 5d 3f
       0.96608573 0.3265495 -0.13854244 0.8656584
000180 83 f4 fa 3e ab a8 98 3e ed d4 3b bd 0a 9b 5c bc
       0.49014673 0.29816183 -0.04585736 -0.013464699
000190 ad 9c 0f 3e f7 f4 5a be 34 73 fe bd 48 d5 82 bd
       0.14024611 -0.21382509 -0.12424317 -0.063883364
0001a0 ed f5 28 bd cb c5 47 be 97 e0 13 3e fe 17 e4 bd
       -0.041250158 -0.19509046 0.14441143 -0.11137389
0001b0 1c d0 75 bd 30 dc f4 bb f0 44 37 3e ba 03 42 3e
       -0.06001292 -0.0074725375 0.17897391 0.18946734
0001c0 c1 93 12 3f ba 67 34 be 4b 41 ef 3e 9f 29 75 be
       0.57256705 -0.17617694 0.46729502 -0.23941658
0001d0 43 4d cc 3e 4c 93 e6 bd 4e 09 e3 bd 56 b1 5f 3d
       0.39902696 -0.112585634 -0.11085759 0.05461248
0001e0 44 49 43 3e b8 4a 4f 3f 68 37 21 3e 5f 76 c6 bb
       0.19070917 0.80973387 0.15743792 -0.0060565914
0001f0 bc 60 32 3e a8 f9 51 3d 0f d1 d7 bc 1a bd 08 bc
       0.17419714 0.05126348 -0.026344804 -0.008345867
000200 0f a3 20 be e2 42 7f bd f4 93 17 be fa 19 44 bd
       -0.15687202 -0.062319644 -0.14802533 -0.047876336
000210 5a 81 55 bd 89 b0 9e 3e 0f bb fe 3e be 21 8c bd
       -0.052125312 0.3099406 0.4975209 -0.06842373
000220 f4 06 68 3e 7d 1e 0d 3f 58 d5 c9 3d f2 71 bb bd
       0.22658902 0.55124646 0.09855145 -0.09152593
000230 8a 15 dd bc ce 2e b1 bd b2 07 b1 bd cf c6 17 bd
       -0.02698781 -0.086515054 -0.08644046 -0.037054833
000240 66 8b ee 3e 55 fe 7e 3f 15 94 17 3e 1c 27 9d 3e
       0.46590728 0.9960683 0.14802583 0.306939
000250 ee d0 21 be 24 7b 51 3f ab c4 67 bd 60 84 47 be
       -0.15802357 0.8182852 -0.05658404 -0.19484091
000260 57 a6 bc 3e 74 22 d6 3e 55 04 cc 3d a3 0c fd bb
       0.36845657 0.4182316 0.09961764 -0.0077224537
000270 5a 30 95 3e 39 0b 0f be 73 fa dd 3e d8 d6 20 be
       0.29138452 -0.13969125 0.4335514 -0.15706956
000280 fb df 1f be 66 05 1e 3f 51 85 09 3e fc dc 98 3d
       -0.15612786 0.6172699 0.13429762 0.074640244
000290 eb a1 21 3f dd 1d 4d 3f 9a fe 2e 3e 08 c9 2e 3e
       0.6313769 0.8012369 0.1708931 0.17068875
0002a0 1d d1 0d 3d 82 af 01 be 9b 98 49 3f e9 ce 95 3e
       0.034623254 -0.12664607 0.7874848 0.29259422
0002b0 c6 78 e9 bd 90 0b f0 bc 7f ae fa 3d 82 dd 01 3f
       -0.11399989 -0.029302388 0.12240314 0.5072862
0002c0 94 22 f7 bd 62 28 bd 3d a1 db b3 3d 4e 39 3b be
       -0.12067142 0.09236218 0.08782125 -0.18283579
0002d0 36 ea 55 3c cb 0a 40 3d 1f 21 f7 3d 19 b1 e7 bd
       0.0130563285 0.046885293 0.12066864 -0.113130756
0002e0 40 61 ec 3d 49 d3 c3 3d 54 b8 38 3e 61 ad 9c 3e
       0.115419865 0.09561784 0.18039066 0.30601028
0002f0 d3 e4 dd 3d 67 51 87 3b c1 a5 cb 3c 67 80 3a be
       0.108346604 0.004129577 0.024859311 -0.18213044
000300 cd 60 0f ba 9c 2e 89 3d 03 55 57 bd 9e e0 82 bc
       -0.00054694415 0.06698343 -0.052571308 -0.015976246
000310 f0 55 6b 3f 85 43 ee 3e f5 52 df 3d 3b 86 1f be
       0.91928005 0.46535888 0.10904495 -0.15578549
000320 72 ee b3 3e 2a ee d7 bc 75 ee 1d 3e 95 f3 16 bd
       0.35142857 -0.026358683 0.15422995 -0.03685339
000330 1c c2 17 3f e2 21 85 bb 69 90 dd 3d 79 f4 e8 3d
       0.5928056 -0.004062877 0.1081856 0.113747545
000340 4a ba 9d 3e 3e 35 30 be b1 0d 19 3e cc e2 41 3d
       0.3080619 -0.1720781 0.14946629 0.04733543
000350 28 ea b9 3c 0c d2 7f 3d 09 2e 8b be 1b 31 b6 bc
       0.022694662 0.062456176 -0.2718356 -0.022240212
000360 26 9e bf 3d 05 3b 9f 3e 49 da 5f bb f7 99 4e 3e
       0.09356336 0.31099716 -0.0034157208 0.2017592
000370 e9 a4 3f 3e 44 bf e8 3d 85 1b 10 3f e4 7a 47 3f
       0.18715252 0.11364606 0.5629199 0.7792189
000380 17 03 0d be 06 29 da bd 97 b3 99 3e c0 8a a6 3e
       -0.1377071 -0.10652356 0.3001983 0.32527733
000390 b8 57 bf bd a4 88 1b be c4 f3 0b 3e 04 89 0c be
       -0.09342903 -0.15188843 0.13667208 -0.13724142
0003a0 1f 6b 79 bb 79 e0 14 bb 1b a6 19 be a0 95 80 3e
       -0.0038058234 -0.0022716804 -0.1500477 0.25114155
0003b0 44 e9 25 3f 07 90 69 3d e3 50 57 be c3 01 5c be
       0.6480906 0.05702212 -0.2102695 -0.21485047
0003c0 11 c0 ce 3e 00 73 23 ba 1d a0 3a 3e e7 30 38 bd
       0.4038091 -0.0006235093 0.18225141 -0.044968512
0003d0 92 e1 a0 3d 60 70 0f be 14 94 51 3e 5c a8 2d bd
       0.07855524 -0.14007711 0.20466644 -0.042396888
0003e0 29 e4 f7 bc 84 7d c0 bc db fa 19 3e dc f3 3b 3e
       -0.030260162 -0.02349735 0.150371 0.18354744
0003f0 a8 31 88 3d 29 fc cc 3d e6 c0 f4 3e b6 04 7c 3e
       0.06650096 0.10009033 0.4780342 0.24611172

l1.bias f4 [136]
000000 06 9d 80 bb d8 89 09 3e f9 0b 0e 3e c9 f6 2f bd
       -0.0039249687 0.1343149 0.13871755 -0.042959962
000010 88 b2 82 bd 35 46 21 3e 62 e8 aa 3d 51 6e 11 3e
       -0.063817084 0.15749438 0.08345105 0.14202239
000020 f0 d6 e1 3d 3f b2 1c 3d 70 63 5a 3d 02 e8 c1 3d
       0.11027324 0.038255926 0.053317487 0.0946808
000030 cb 1a 28 3e 11 66 f5 3d e1 e7 9e 3c d0 da c5 3d
       0.1641647 0.11982358 0.019397678 0.09660876
000040 1d 16 93 3d 1b a2 8a bd 7a c2 f9 3c 83 a4 2e be
       0.07181952 -0.067692004 0.030488241 -0.17054944
000050 5e 5c 14 3e 89 a0 e8 bc b8 32 aa 3e 5e 67 39 3e
       0.1448836 -0.028396862 0.3324182 0.18105838
000060 bd 92 a3 3b 1a bd af 3d 75 17 50 3d b2 fb 08 3e
       0.004991858 0.0858099 0.05080362 0.13377264
000070 01 f3 18 3e 4c 19 02 3e 3b 1f e9 3d e3 5d db 3d
       0.14936449 0.12704962 0.1138291 0.10711267
000080 76 84 f0 3d f2 50 71 3e da 79 d5 3d 66 4c 4c 3d
       0.11744015 0.23566034 0.10423632 0.049877547
000090 d8 b3 f5 b8 73 88 25 3c 8b a2 15 3d 2d 16 c1 bc
       -0.00011716009 0.010103333 0.036531966 -0.023570145
0000a0 35 84 6b 3e d9 5e 9a 3d 27 ed be 3d a2 2e 3e 3d
       0.22999652 0.07537622 0.09322577 0.04643119
0000b0 d5 b2 b4 3c cf ca 6d 3d 58 45 4b 3d ba 90 0c 3e
       0.02205793 0.05805474 0.04962668 0.13727084
0000c0 32 3c 02 3e d1 c7 a3 3d b7 fe 09 3e 45 22 99 3d
       0.12718275 0.07997096 0.13476072 0.074772395
0000d0 53 82 d3 3c dc 41 38 3e 98 22 02 3e ce 29 07 3e
       0.02581898 0.17993873 0.12708509 0.13199541
0000e0 28 04 46 3d 42 a1 ed 3d bb 54 a9 3d c9 05 2c 3e
       0.048343807 0.11603023 0.08268114 0.16799082
0000f0 a1 73 14 3e b1 58 36 3e 3a 27 69 bd d2 72 c9 3d
       0.14497234 0.1780727 -0.056922175 0.09836353
000100 b1 df 1b 3e 89 ae fc 3d 6a e2 d1 bd 6d dd 09 3e
       0.1522205 0.123379774 -0.10248263 0.13463373
000110 a5 f8 af 3b fb 39 9a 3d 60 1b 61 3e be b7 0e 3e
       0.005370217 0.0753059 0.21983099 0.1393728
000120 d8 9e c5 bb de 82 3f 3e dc 1e f7 3d cf a9 ca 3d
       -0.0060308985 0.18702266 0.12066433 0.0989567
000130 2d 7f 85 3e 59 0f d6 3d 8c 7d 96 3d 93 98 94 3d
       0.2607359 0.10452146 0.07348165 0.07255664
000140 c5 31 98 3d e1 ca ab 3d d1 1e 02 3d f1 52 95 3d
       0.07431368 0.083883055 0.03176767 0.072912104
000150 00 d7 ec bd ba 10 87 3e ad 3d 09 3d 7c 73 24 3e
       -0.115644455 0.2637995 0.033506084 0.16059679
000160 cb 21 91 bd 3b bf 9d 3d 55 d6 3a 3e 05 3f 35 3d
       -0.070865236 0.0770249 0.18245824 0.044249553
000170 ec 1d 16 3e f4 23 2c 3e b5 58 34 3d c3 b5 4b 3e
       0.14659852 0.1681059 0.04402991 0.19893555
000180 a8 af dd 3d f6 81 82 3e 12 32 5d 3e 6c 09 20 bb
       0.108245194 0.25489777 0.21601132 -0.0024419678
000190 8e f1 10 3d 07 17 b2 3c da 05 e5 3c 66 fb e2 3d
       0.035386615 0.021739496 0.027956892 0.11083107
0001a0 21 01 87 bc c1 d2 de 3d be 57 0f bd 62 84 9f bc
       -0.01648003 0.10880042 -0.034995787 -0.019472305
0001b0 e5 94 5d 3e 11 c7 aa 3d 32 44 af 3d 5c 55 9e bd
       0.2163883 0.0833875 0.08557929 -0.07731125
0001c0 f2 a0 1b 3e b9 31 0e 3e ab 70 a3 3d b6 7c 21 3e
       0.15198115 0.13886155 0.07980474 0.1577023
0001d0 92 40 d1 3d a2 30 14 3e 80 1e 84 bd 42 96 0e 3e
       0.10217394 0.14471677 -0.0645113 0.13924506
0001e0 9e ab 16 3d 2b 97 a4 3d d4 51 10 3e eb 31 3b 3d
       0.03678476 0.080366455 0.14093715 0.045701902
0001f0 7e 30 0d 3e 6f 76 75 3d b5 30 17 3e a8 07 8a 3d
       0.1378803 0.0599274 0.14764674 0.067397416
000200 af dc a7 3d 1c 77 ee 3d 44 1c 07 3d c8 6e 9c 3d
       0.08196389 0.11643812 0.03298594 0.07638317
000210 17 6e ce 3d 09 8d 7e 3d 46 dc 1a 3e 3c 32 8e bc
       0.10079592 0.06214622 0.1512309 -0.017357938

l2.weight f4 [136, 136]
000000 12 85 79 be 64 d0 c5 bd 2b 1a 35 bd 13 f8 d1 bd
       -0.24367169 -0.09658888 -0.04421441 -0.102523945
000010 63 a5 4d be 5a f4 67 bd e7 18 05 3d 12 f3 ae 3d
       -0.20082621 -0.056629516 0.03249445 0.08542456
000020 1a e3 24 be c0 da 11 be 61 56 1c 3f 10 42 09 3e
       -0.16102257 -0.14243603 0.61069304 0.13404107
000030 04 d1 05 3e e2 77 ca 3d 30 3d 80 be 48 2c b6 3d
       0.13068014 0.09886147 -0.25046682 0.08895165
000040 fe 09 dd 3d 8b a7 5f 3e 7a b3 b6 bc 79 41 e7 3d
       0.107929215 0.21841256 -0.022302378 0.11291785
000050 2d 61 aa 3b 6a 2a ed 3e c9 b7 89 3d 98 50 f1 3c
       0.0051995725 0.46321422 0.06724507 0.029457375
000060 18 65 8c 3e 0a f4 c0 be c7 73 a7 be ed f8 78 3e
       0.27420878 -0.37686187 -0.3270552 0.24313708
000070 0c 7b 25 3c 83 5a 33 3e c5 20 c5 3e 4e ad 94 3e
       0.010100137 0.17514996 0.38501564 0.2903847
000080 80 f4 71 3e e7 de 65 3e c4 c0 7a bd b1 e9 ed 3d
       0.23628426 0.22448312 -0.061218992 0.11616839
000090 44 b8 27 3e f8 fb 52 3d d5 e8 15 3e 0a 6e 28 3e
       0.16378886 0.051509827 0.146396 0.16448227
0000a0 26 5a 89 3e 45 1e f3 3d b8 d1 24 bd 41 d0 8e be
       0.2682659 0.11871008 -0.040239066 -0.2789326
0000b0 27 7e 07 3e 9a 95 9f 3e 2f f5 18 be e3 35 02 3f
       0.13231717 0.31168824 -0.1493728 0.50863475
0000c0 f0 ac 08 3e 05 bd 29 3e d4 6a e8 3d 59 41 0e 3e
       0.1334722 0.16576011 0.11348501 0.13892116
0000d0 65 53 b0 be bc 74 f5 3e cf 5c 31 bc 5c 08 d9 bd
       -0.34438625 0.47940624 -0.01082535 -0.105972975
0000e0 64 b6 f3 be 60 96 51 bd be 94 33 3e b5 db f6 bd
       -0.4760009 -0.0511688 0.1753721 -0.120536245
0000f0 de a4 e3 3e c0 37 e7 3e b0 3b 9a 3d 65 f1 d0 be
       0.4446172 0.4515972 0.07530916 -0.4080917
000100 c6 e6 1a be aa 95 42 3e bc 5e 2f 3e a4 d4 85 bd
       -0.15127096 0.19002405 0.17125982 -0.065346986
000110 cd e5 3f 3e 40 10 52 be 65 56 da 3e 58 47 8a 3e
       0.18740006 -0.20514011 0.4264404 0.27007556
000120 b6 3d d5 3d 65 bf 2a 3d 1c 8f 34 bd da 63 3e be
       0.10412161 0.041686434 -0.044081792 -0.18592778
000130 de 46 68 3e 60 a3 56 3d ec ba 91 be a5 a1 38 be
       0.22683284 0.0524019 -0.28462923 -0.18030412
000140 44 ce 9b 3e 9d a3 22 be 6b 2f bd be b6 6f f1 3e
       0.30430806 -0.15882726 -0.3695024 0.4715554
000150 d9 44 59 be 3b 10 d1 3e 44 e8 fe 3c 03 81 db 3c
       -0.2121767 0.40832695 0.031116612 0.026794916
000160 01 13 e7 3d bc e8 83 bc 75 55 3e 3e 92 51 7e 3e
       0.112829216 -0.016102187 0.18587287 0.24835804
000170 70 9a 82 3e fb 47 23 3d 0e 31 f8 3d 8f e4 dc 3d
       0.2550845 0.039863568 0.121187314 0.107857816
000180 fa b9 a3 3e d2 3a ca 3e 27 95 d1 3d 16 51 45 3d
       0.31977826 0.39498 0.10233527 0.048173033
000190 3e 36 4c be ba 71 91 3d fd b2 b9 3c c1 ae f1 3d
       -0.19942567 0.0710177 0.022668356 0.1180091
0001a0 a3 1c 1b 3e 2f 87 13 3d b1 30 fc 3d 92 f9 39 3e
       0.15147643 0.036017593 0.12313975 0.1816161
0001b0 13 f9 a7 3e 17 37 80 3e c0 57 34 3e d1 39 e2 3e
       0.32807216 0.2504203 0.17611599 0.44184735
0001c0 2f d6 ca 3e e2 af 00 3c 2a db 7e be c6 d0 55 3e
       0.39616534 0.007854434 -0.24888292 0.20880422
0001d0 7a 10 4b be 8a 34 89 3d 9b 88 c5 bd dc 3d d6 3d
       -0.19830504 0.06699474 -0.09645196 0.104610175
0001e0 a6 db ba be ea 26 a2 3d 5c c9 0d bc a8 7c 4a 3e
       -0.36495703 0.079175785 -0.008653965 0.19774115
0001f0 08 48 95 3e 8a 63 ac be 82 0d 0e 3e dd 61 52 3e
       0.29156518 -0.33669692 0.1387234 0.20545144
000200 d1 b2 40 bd e0 7b 70 be 25 97 1e 3e 42 44 11 3b
       -0.047045533 -0.23484755 0.15487345 0.002216593
000210 ea 7c e7 bd 6c 1a a8 3e d8 b3 a4 3c 8d 72 30 3e
       -0.11303122 0.32832658 0.020105287 0.17231198
000220 37 86 fe 3c 75 22 f8 bd 6a 32 a1 3d b4 dc 62 bd
       0.031069858 -0.12115947 0.07870944 -0.05538626
000230 24 71 c7 3d f6 e1 86 be 64 00 e3 3d 6f d7 1f be
       0.09738377 -0.2634427 0.11084059 -0.15609525
000240 97 a8 79 bd d4 48 40 be 44 08 12 3f c8 80 82 bd
       -0.060951795 -0.18777782 0.5704386 -0.06372219
000250 7e b8 e6 bc 17 95 99 3e a5 95 a4 be 16 c3 4c 3e
       -0.028164145 0.2999656 -0.3214542 0.19996294
000260 d7 ca 5d 3e e8 0f e0 3d ae 18 36 bd b7 d8 7e 3e
       0.21659409 0.10940534 -0.04445713 0.24887358
000270 86 f5 5d 3e de 46 9c 3e 74 2e a3 bc 7f 37 60 bd
       0.21675691 0.30522817 -0.019919612 -0.054740425
000280 4b 51 70 3e ab 0e 0d 3e c5 c0 f7 bd 25 4a 6a 3e
       0.23468511 0.13775127 -0.12097315 0.22879846
000290 92 04 8c 3d 8d 16 b6 3d 5b 73 c8 3d 76 dd b5 be
       0.06836809 0.0889102 0.09787627 -0.35520524
0002a0 04 1d 86 3e 4b 02 dc be 5e b6 99 3e cc 1a 5c 3e
       0.26194012 -0.429705 0.30021948 0.21494597
0002b0 b3 44 c1 3c 33 1b 4b be 06 c4 13 bc 24 29 3e 3e
       0.023592329 -0.19834594 -0.009018904 0.18570381
0002c0 d5 e4 cc 3d fb 57 1f be ba 3d 97 be b6 0e 90 3d
       0.10004584 -0.15560906 -0.2953928 0.07034056
0002d0 81 d5 5d 3d 3d 22 ba 3e 60 76 f8 3c 9a f0 96 be
       0.05415869 0.36354247 0.030329883 -0.2948044
0002e0 e0 77 ab bc 50 47 c6 3d 16 1b ac be b7 2b 3b 3e
       -0.020931184 0.096815705 -0.33614415 0.18278395
0002f0 58 4e bf 3c c0 8f 79 be 5a d1 8e bd 01 25 1d be
       0.023352787 -0.24371243 -0.069735244 -0.15346147
000300 52 48 f8 3d 71 d9 89 be d7 a7 3b bc 37 6d ba bd
       0.12123169 -0.26923707 -0.01145359 -0.09102862
000310 62 e9 1e 3e 56 20 a5 3d 3a 50 b0 3d c3 b4 9a bd
       0.15518716 0.08062808 0.08609052 -0.07554009
000320 cb 21 ed be 56 17 da 3d 8b 27 82 3e 24 24 6a bd
       -0.46314844 0.10648982 0.25420794 -0.057163373
000330 fe 8c 78 3e d0 19 05 3e 8c 39 5c 3e 4e bf d1 bd
       0.24272534 0.12998128 0.21506327 -0.102415666
000340 eb a5 5b 3d df 08 e7 3c 5a 64 9f 3c a5 90 5b 3e
       0.05362503 0.028202472 0.019457031 0.21441896
000350 46 78 2d 3c a7 49 fd be 2a 9a f4 bb 9e 2c 04 3e
       0.010587757 -0.49470255 -0.007464667 0.12907645
000360 a0 46 e0 3e 9a 98 e7 bd 62 3b ff 3d de ba ca 3e
       0.43803883 -0.11308403 0.12462498 0.39595693
000370 87 9e a2 be e9 77 31 3e a6 ad 98 3c 70 43 4c be
       -0.31761572 0.17330898 0.01863749 -0.199476
000380 2f c9 45 3e c4 16 c0 bd 9d dd 85 bd c2 fd 03 3c
       0.19315027 -0.09379342 -0.0653641 0.008056106
000390 02 f1 06 bb 9d 0a 5c bd 93 28 10 3e 34 9c 87 3d
       -0.002059043 -0.05372106 0.14077978 0.0662159
0003a0 f0 63 5d bd fa 89 8c bd aa 03 64 bd 28 dc 95 bd
       -0.054050386 -0.068622544 -0.055667557 -0.07317382
0003b0 74 53 ab bd b3 2b 24 3e f1 15 38 bd 5d 81 a9 be
       -0.08365527 0.16032295 -0.0449428 -0.3310651
0003c0 5f d9 8f 3d dd 7d 21 3e 6a ce ba 3c e3 7d 53 3e
       0.07023882 0.1577067 0.022803504 0.2065349
0003d0 b2 04 e5 3c b4 5c 14 be 22 eb 94 3e 35 57 44 bc
       0.02795634 -0.14488488 0.29085642 -0.011983682
0003e0 c7 fe 00 3e ef 18 62 bd 90 87 ba bc 2a f0 db bd
       0.1259719 -0.05519956 -0.02276972 -0.10739167
0003f0 2a ba 11 3e 7b ba 78 3e 53 fa 80 3d 92 4d 4a be
       0.14231172 0.24289887 0.062977456 -0.19756153

l2.bias f4 [136]
000000 14 d0 ab 3c 3d 7f e2 bd b3 80 a1 bc 6b d0 ed 3b
       0.020973243 -0.11059425 -0.019714689 0.0072575114
000010 82 4b 1e bd 91 65 bd 3b e8 07 64 3b 25 52 e1 bd
       -0.03864623 0.00577993 0.0034794752 -0.11001996
000020 b3 90 0f 3d 13 82 77 3d 13 d5 d6 3c c1 e5 86 bd
       0.035050105 0.060426783 0.026224649 -0.06586791
000030 95 ce 16 bd 43 7a c0 3c 9b 76 06 3c 4f 06 64 bd
       -0.036818106 0.023495799 0.008206989 -0.05567008
000040 5d 9c b7 3d e3 c9 94 3c 88 3c 97 bd a7 3b 14 bc
       0.08965371 0.018162673 -0.07384592 -0.009047425
000050 b3 eb 10 3c af 96 c7 ba e3 26 9f 3d 10 c2 c7 bd
       0.008845258 -0.0015227402 0.07771089 -0.09753811
000060 b7 d1 53 3d ad d9 16 bd 97 ab 9b bd f5 da 82 bd
       0.05171367 -0.036828686 -0.076010875 -0.06389419
000070 25 de 9e bd e0 1d 3d bd a4 89 bc bd bf 21 f9 bd
       -0.077572145 -0.04617107 -0.0920594 -0.1216464
000080 72 68 8c bc 11 62 c1 bd ee 8e 7f 3e 5b 3d 53 3d
       -0.017139647 -0.09442533 0.24956867 0.051572185
000090 d3 56 1f be cc 56 df 3c db 9c b3 bc 6d ae c9 bd
       -0.15560465 0.027263068 -0.02192538 -0.09847722
0000a0 9a 97 ec bc 5f 24 2a be ff 6e d4 bd 94 06 2b bd
       -0.028880883 -0.16615437 -0.10372733 -0.04175432
0000b0 64 ed a7 bd 3c dd 6c bd 82 8a 9b bd 01 bf 71 3d
       -0.081995755 -0.057828173 -0.07594778 0.059020046
0000c0 12 27 09 be 9b b3 aa bd 49 99 bd 3e 66 9e 9c 3d
       -0.1339381 -0.08335038 0.3703101 0.076473996
0000d0 be 07 bd bb c9 5e 88 3c 6e 2c c3 bd 0c 79 0f bd
       -0.005768745 0.01664676 -0.09529959 -0.03502755
0000e0 9f 69 44 bd 01 9a a4 3c d3 4b 62 ba b1 fd 5f bd
       -0.04795229 0.020092966 -0.00086325145 -0.0546853
0000f0 60 06 8c bd 29 0d a0 bd ca 80 58 3d 42 a6 0d be
       -0.068371534 -0.0781501 0.052857198 -0.13832954
000100 53 dc d0 bc 06 e1 dd bd 6e 1e 9d bd e0 e9 1f bd
       -0.025495684 -0.108339354 -0.076718196 -0.0390414
000110 6e c1 00 be 99 9a b4 bd d5 60 2d bd 1c af 8e bd
       -0.12573788 -0.0881855 -0.042328674 -0.06966993
000120 7b f8 86 3e aa bb 08 be 31 db 42 3d be a8 8e bd
       0.2636145 -0.13352838 0.04757232 -0.06965779
000130 10 31 14 be 1d 75 07 3d 30 3a 68 3d 10 d5 af 3d
       -0.14471841 0.033070672 0.056696117 0.0858556
000140 ab 0a 03 3d e7 d9 0a 3c 67 a9 dd 3c 11 03 06 bc
       0.031992596 0.0084748035 0.027058316 -0.008179442
000150 79 9e 1d bd 33 ed 1d be 5b 06 c5 bd 16 ea 82 bb
       -0.03848121 -0.15422516 -0.09620353 -0.0039951904
000160 10 e6 19 bd 51 02 3c 3e 1c ea cc bd 1b 59 d1 bd
       -0.03757292 0.18360259 -0.1000559 -0.10222074
000170 6f 3e 02 bd dd d4 85 3c 30 25 dd bd c3 e8 0f be
       -0.031797823 0.016336853 -0.107981086 -0.14053635
000180 96 0f 45 bd fd 9e c6 3c ae 89 c0 bc 88 5c cc bd
       -0.048110567 0.024245733 -0.02350315 -0.099785864
000190 54 fa 2b bd 4c ad e2 3c de 60 34 3d ee ec ab 39
       -0.04198678 0.027670525 0.044037692 0.00032792188
0001a0 40 d1 5c bd 05 4c 14 bd e8 1c 84 bd 29 84 10 be
       -0.053910494 -0.03620531 -0.06450826 -0.14112915
0001b0 47 15 81 bd 09 50 a7 bc 4d 5c c7 3c e4 79 a6 bd
       -0.063028865 -0.020423906 0.024336005 -0.081287175
0001c0 34 57 bf bd 7a 62 24 3c db 3f a9 bd 49 55 1c bd
       -0.093428046 0.010033244 -0.082641326 -0.03816727
0001d0 79 5a df bb fc 8d 91 bd 65 8f ea bc 80 3a 4d bd
       -0.006816205 -0.071071595 -0.028632829 -0.050104618
0001e0 50 a0 62 3d 29 4d 9b bd f1 7d 59 bc 0c 85 99 bd
       0.055328667 -0.075830765 -0.013274656 -0.0749608
0001f0 6a 88 a4 3d 85 c1 a9 bd d0 43 b2 bd f1 15 98 bd
       0.080338314 -0.08288864 -0.087043405 -0.0742606
000200 d4 2e 9d bc c3 8b fa 3c 14 fe 80 bd 09 72 a4 bd
       -0.019187368 0.030584222 -0.062984616 -0.08029563
000210 a6 52 06 3d 99 05 fb 3c 09 7b 0c bd 00 73 7c bb
       0.032793663 0.030642318 -0.034297023 -0.0038520694

l3.weight f4 [46, 136]
000000 af a0 af be ef ae ce 3d 10 00 ca 3d 96 8a 0e be
       -0.3430228 0.1009196 0.09863293 -0.13920054
000010 1c 00 16 be 59 99 05 c0 68 f3 23 bf 7b 3c 72 bf
       -0.14648479 -2.0874846 -0.64043283 -0.94623536
000020 f1 f3 35 bc 07 e2 73 bd 2e 3a 84 bf 82 37 52 3d
       -0.011105523 -0.05954173 -1.0330255 0.051322468
000030 5f 22 f1 bd be 99 6b 3c 9a 07 97 3d 15 a6 04 bd
       -0.11774134 0.014379917 0.07374497 -0.03238495
000040 1d 48 f5 bf 3f a0 10 bd 72 86 4f be ea 23 33 be
       -1.9162632 -0.035309073 -0.2026613 -0.17494169
000050 da a9 5b bd 60 97 dc 3b ed 84 63 bc 5b 8c a0 3d
       -0.05362878 0.0067319125 -0.013886672 0.07839271
000060 1c e3 3b bf 7c 99 f7 be 1c 66 96 be cc 38 b6 be
       -0.73393416 -0.48359287 -0.29374778 -0.35590208
000070 bb 03 2b 3d e6 02 c1 bd e8 84 06 3d 62 d3 61 be
       0.041751605 -0.09424381 0.032841593 -0.22053292
000080 ce 9d 90 bf b2 05 a6 be f1 f9 98 bf 15 98 04 c0
       -1.1298158 -0.3242622 -1.1951276 -2.0717824
000090 bc aa ea be 6d f7 7c 3d 2b cd 6d be 66 5b b4 ba
       -0.45833385 0.0617594 -0.23222797 -0.0013760149
0000a0 5e 85 1c 3e 9a 8a 36 bf 2e 80 49 bf dc be 18 be
       0.1528525 -0.7130524 -0.7871121 -0.14916557
0000b0 8c 2e 0f bf 48 4b 57 bd 42 8b a3 be 13 c5 2a bf
       -0.559304 -0.05256203 -0.31942183 -0.6670696
0000c0 e5 5d c8 be f2 42 81 3b a2 17 b2 bf 4b fa e5 bf
       -0.39134136 0.003944748 -1.3913462 -1.7967008
0000d0 07 a3 0f bf 0a ca 1b 3d ad 54 a9 bc c2 92 6c bf
       -0.56108135 0.038034476 -0.02067026 -0.92411435
0000e0 4f 71 87 bc 40 b2 ab be 83 76 4c be c3 18 90 bf
       -0.016533522 -0.3353443 -0.19967084 -1.1257557
0000f0 a2 b3 7c 3c 7b 9e 51 bf d8 f5 98 bd fa 7f 9a 3d
       0.015423687 -0.81882447 -0.07468766 0.07543941
000100 28 10 89 3c 85 9a c9 be e1 09 ba 3d 2b 9f 97 bf
       0.016731337 -0.39375702 0.090839155 -1.1845449
000110 88 83 8b bf 6c b6 28 be d8 d3 50 3d 3c 2e 80 bd
       -1.0899515 -0.16475838 0.05098328 -0.062588185
000120 57 0b 04 c0 49 62 b5 be 0e 47 35 3b 1f 60 5f bb
       -2.0631921 -0.35426548 0.002766076 -0.0034084392
000130 14 bb bf 3d 42 02 21 bf 9b 62 c5 3d a9 ef dd bf
       0.09361854 -0.6289407 0.09637948 -1.7338763
000140 d0 d1 bb 3b a2 68 41 be 2b 57 d6 bf 28 2b a8 bf
       0.0057317987 -0.1888757 -1.6745352 -1.313817
000150 3c 7f 10 be ee 83 43 3d ef 20 40 bd 79 fe 8a 3d
       -0.14111036 0.04773324 -0.046906408 0.06786818
000160 e2 91 2e be 5d cb 6f bf a0 9a 54 3d 65 8b b4 3c
       -0.17047837 -0.9366968 0.051905274 0.022039125
000170 58 f4 51 bf 8d 5a cf bd a8 9a 88 3c e6 10 44 bd
       -0.82013464 -0.10124693 0.016675308 -0.047867678
000180 da 46 07 3d 61 6b 45 be be 97 53 be ce c9 ec be
       0.033026554 -0.19279243 -0.20663354 -0.46247715
000190 fb 92 8d be 82 db 9e 3d 16 25 fe be f2 ec 89 3d
       -0.276512 0.077567115 -0.4963767 0.06734647
0001a0 e7 04 95 bd 7b 4f e0 3d 15 cf 3d 3d 5b d7 25 be
       -0.07276326 0.1095266 0.046340067 -0.16195433
0001b0 8c 18 04 bf 86 48 9c be f4 da d6 be 56 18 7d bd
       -0.51599956 -0.3052408 -0.41963923 -0.061790787
0001c0 bf 4d 0b 3d 8e 74 8e be 85 cd 90 bd 91 c1 a2 bc
       0.03400969 -0.278233 -0.0707045 -0.01986769
0001d0 1c 41 c6 be 16 ad 14 be 68 de 98 bc a5 f8 50 bb
       -0.3872155 -0.14519152 -0.018660739 -0.0031886485
0001e0 49 dd 96 bf 92 3e 27 bc e1 15 ce bd d2 33 32 3d
       -1.1786281 -0.010207789 -0.10062767 0.04350645
0001f0 1e 04 6a bf 70 86 3f 3d f2 d1 0b bf e7 f8 bf be
       -0.9141253 0.04675907 -0.54617226 -0.37494585
000200 95 ea 15 be be 87 22 bf 47 53 39 bd b4 a4 71 bf
       -0.14640267 -0.63488376 -0.045245435 -0.9439194
000210 72 9e 49 bf 58 fe 1c bf a7 3c 3e 3d a4 7a dd be
       -0.78757393 -0.613256 0.04644456 -0.4325763
000220 fc 24 99 3d 43 a8 90 bd f1 5a 8b bf e9 85 17 3c
       0.07477757 -0.070633434 -1.0887128 0.009248235
000230 97 15 29 be 4b 81 b8 bf 07 ab 1b bc d1 28 55 bf
       -0.16512142 -1.4414457 -0.009501225 -0.83265406
000240 e8 59 97 3d d2 63 67 3d 0e a2 fe be d3 81 13 bf
       0.07390195 0.05649168 -0.49733013 -0.5761997
000250 98 ed 36 3d 8b 0d ee be cc cd dc be d6 be da be
       0.04466018 -0.46494707 -0.4312576 -0.4272372
000260 de 27 71 bf f9 74 1c 3d 05 7f 32 3d 8a b6 d0 bd
       -0.9420146 0.03819749 0.043578167 -0.101910666
000270 44 36 61 be 32 73 b6 3d 0a 13 af bf 32 26 66 bf
       -0.21993357 0.089086905 -1.3677685 -0.8990203
000280 d1 39 25 be 83 bb 19 bf 61 59 62 be ff f2 a0 bc
       -0.16135336 -0.60051745 -0.22104408 -0.01964712
000290 e0 d1 4d bf b9 b6 87 3d 7b 3e 9e be 09 bf 37 3e
       -0.8039837 0.066266485 -0.30907044 0.17943968
0002a0 58 36 00 c0 03 47 99 bd 58 70 d7 bf d4 9e 98 bf
       -2.0033169 -0.074842475 -1.683116 -1.192347
0002b0 cc 23 51 bd d6 94 60 bc 79 f4 a1 bd 7b 45 70 3c
       -0.05105953 -0.01370736 -0.079079576 0.014665003
0002c0 e1 64 e7 bd 3c 80 15 3e 9a 30 5a 3e 6f 6a fe bd
       -0.11298538 0.14599699 0.21307603 -0.12422644
0002d0 57 47 05 3e 00 ac 7c be 7b 73 9c bf f2 2a b4 bf
       0.13015495 -0.24674988 -1.2222742 -1.4075606
0002e0 0f 41 b1 be be 71 86 be 18 42 75 c0 4d c8 0b bf
       -0.34619948 -0.26258653 -3.832159 -0.5460251
0002f0 e5 b9 91 bf 1e 15 68 be 3a 73 82 bf ba d4 53 bf
       -1.1384856 -0.22664306 -1.0191414 -0.8274647
000300 87 e0 3c bd 59 6c 6e 3e 1c ed 19 3e 50 21 8d bf
       -0.046112563 0.23283519 0.15031856 -1.1025791
000310 4d 07 f0 ba 10 c9 5f 3f 8b e2 1a bb d7 3d b0 be
       -0.0018312723 0.8741617 -0.0023633565 -0.3442218
000320 a1 04 05 bc c5 eb ce be f4 bd 88 bf bc 28 f9 bf
       -0.008118779 -0.40414253 -1.0682969 -1.9465556
000330 21 a8 aa 3c 00 cd f8 bd 1c 4a 55 bf 4c 60 99 bd
       0.020832123 -0.12148476 -0.83316207 -0.0748907
000340 45 5b 0e c0 43 e6 26 3e ed d0 50 bf 3e 30 8a 3d
       -2.2243207 0.16298775 -0.81568795 0.06747483
000350 c9 4b d7 bf 88 83 80 bc 4c 70 13 bf a5 5b 08 c0
       -1.6820003 -0.015687719 -0.57593226 -2.1305935
000360 c9 87 93 bf ef 5f 27 bd cd db 86 bf 86 48 f2 be
       -1.1525813 -0.040862974 -1.0535828 -0.47320956
000370 7d 05 bf be 33 ca e3 bb 18 3f a2 bd 06 72 a8 bf
       -0.37308875 -0.0069515943 -0.079221904 -1.3159797
000380 a1 bf d9 bd db ba 9c c0 59 b6 02 bf 15 cd df be
       -0.106322534 -4.8978095 -0.5105949 -0.43711153
000390 dd e3 11 bd 08 ce cc bc 36 c5 3c 3e 26 96 23 3e
       -0.035617698 -0.025000587 0.18434605 0.15975246
0003a0 e3 d2 90 bf 7f a3 90 be 4e f4 e7 3d 9d ce 1e be
       -1.1314358 -0.28249738 0.11325894 -0.15508504
0003b0 57 30 0a 3e 1a f2 9b bd d2 2a a5 bf 09 3f e9 3d
       0.13495003 -0.076145366 -1.2903693 0.11388976
0003c0 cb 05 14 bd f5 c7 0b bf e7 1d 9c bc db b1 8b 3d
       -0.036138337 -0.54601985 -0.019057227 0.068210326
0003d0 10 e5 99 be fa 1b 8c 3e b2 60 cb 3d 0f 68 68 3c
       -0.30057573 0.27365094 0.099305525 0.014184966
0003e0 5e d3 3d bd cc 9a 14 3e bd 23 2c 3d c2 76 43 bf
       -0.046344154 0.14512175 0.04202627 -0.76353085
0003f0 03 50 9d bd f3 e3 8e be 89 cc b4 3b 5a b3 ca be
       -0.07681277 -0.27908286 0.0055175466 -0.3958996

l3.bias f4 [46]
000000 9d e2 c1 bf 01 65 13 c0 7d 36 61 ba 64 3a 2c c0
       -1.5147282 -2.3030398 -0.0008591188 -2.691064
000010 0f 19 04 c0 f2 6c a8 bf 09 d4 f5 bf 37 9a 75 bf
       -2.0640295 -1.3158247 -1.9205333 -0.9593844
000020 57 11 db bf f2 75 7c bf cf 3a 1b c0 ba b8 2c c0
       -1.7114667 -0.9861747 -2.4254644 -2.6987748
000030 93 d3 83 bf bd e9 2a c0 7c 1b a8 bf 59 8c c2 bf
       -1.0298942 -2.6705163 -1.3133388 -1.5199081
000040 86 3a fe bf 82 55 b4 bf 67 d0 24 c0 59 3d c9 bf
       -1.986161 -1.4088595 -2.5752199 -1.5721847
000050 ea e4 3b c0 bd 6e ce bf ad f2 9a bf 41 de f6 bf
       -2.9358468 -1.6127545 -1.2105309 -1.9286577
000060 a2 cf 1d c0 06 08 bc bf 06 cc 0d c0 0b b3 7a bf
       -2.465798 -1.4689949 -2.2155776 -0.9792945
000070 82 ba da be 4b bf 8e bf 25 8b 21 bd f5 d6 f2 bf
       -0.4272042 -1.1152128 -0.03943934 -1.897185
000080 a6 8a 25 c0 84 7a 94 bf a1 18 a2 bf ab 55 d6 bf
       -2.5865874 -1.1599889 -1.2663766 -1.6744894
000090 99 42 ec bf fe 55 91 bf 4e 35 ed bf d0 0b fd bf
       -1.8457824 -1.1354368 -1.8531892 -1.976923
0000a0 8c 43 1c c0 7e aa 17 c0 60 d7 2d c0 2a 97 b0 bf
       -2.4416227 -2.369781 -2.7162704 -1.3796132
0000b0 b0 df f2 bf d3 33 b2 bf
       -1.8974514 -1.3922065
